…
/home/ubuntu/geof/open_clip/src/open_clip/factory.py:380: UserWarning: These pretrained weights were trained with QuickGELU activation but the model config does not have that enabled. Consider using a model config with a "-quickgelu" suffix or enable with a flag.
  warnings.warn(
2024-11-29,10:56:43 | INFO | Loading pretrained ViT-B-32 weights (openai).
/home/ubuntu/geof/open_clip/src/open_clip/factory.py:380: UserWarning: These pretrained weights were trained with QuickGELU activation but the model config does not have that enabled. Consider using a model config with a "-quickgelu" suffix or enable with a flag.
  warnings.warn(
2024-11-29,10:56:43 | INFO | Loading pretrained ViT-B-32 weights (openai).
2024-11-29,10:56:43 | INFO | Model:
2024-11-29,10:56:43 | INFO | CLIP(
  (visual): VisionTransformer(
    (conv1): Conv2d(3, 768, kernel_size=(32, 32), stride=(32, 32), bias=False)
    (patch_dropout): Identity()
    (ln_pre): LayerNorm((768,), eps=1e-05, elementwise_affine=True)
    (transformer): Transformer(
      (resblocks): ModuleList(
        (0-11): 12 x ResidualAttentionBlock(
          (ln_1): LayerNorm((768,), eps=1e-05, elementwise_affine=True)
          (attn): MultiheadAttention(
            (out_proj): NonDynamicallyQuantizableLinear(in_features=768, out_features=768, bias=True)
          )
          (ls_1): Identity()
          (ln_2): LayerNorm((768,), eps=1e-05, elementwise_affine=True)
          (mlp): Sequential(
            (c_fc): Linear(in_features=768, out_features=3072, bias=True)
            (gelu): GELU(approximate='none')
            (c_proj): Linear(in_features=3072, out_features=768, bias=True)
          )
          (ls_2): Identity()
        )
      )
    )
    (ln_post): LayerNorm((768,), eps=1e-05, elementwise_affine=True)
  )
  (transformer): Transformer(
    (resblocks): ModuleList(
      (0-11): 12 x ResidualAttentionBlock(
        (ln_1): LayerNorm((512,), eps=1e-05, elementwise_affine=True)
        (attn): MultiheadAttention(
          (out_proj): NonDynamicallyQuantizableLinear(in_features=512, out_features=512, bias=True)
        )
        (ls_1): Identity()
        (ln_2): LayerNorm((512,), eps=1e-05, elementwise_affine=True)
        (mlp): Sequential(
          (c_fc): Linear(in_features=512, out_features=2048, bias=True)
          (gelu): GELU(approximate='none')
          (c_proj): Linear(in_features=2048, out_features=512, bias=True)
        )
        (ls_2): Identity()
      )
    )
  )
  (token_embedding): Embedding(49408, 512)
  (ln_final): LayerNorm((512,), eps=1e-05, elementwise_affine=True)
)
2024-11-29,10:56:43 | INFO | Params:
2024-11-29,10:56:43 | INFO |   accum_freq: 10
2024-11-29,10:56:43 | INFO |   aug_cfg: {}
2024-11-29,10:56:43 | INFO |   batch_size: 288
2024-11-29,10:56:43 | INFO |   beta1: 0.9
2024-11-29,10:56:43 | INFO |   beta2: 0.98
2024-11-29,10:56:43 | INFO |   cache_dir: None
2024-11-29,10:56:43 | INFO |   checkpoint_path: /data/logs/2024_11_29-10_56_39-model_ViT-B-32-lr_1e-06-b_288-j_8-p_amp/checkpoints
…
